results1/best_model.pt (torch, 462891 bytes, 24 tensors)

weight f4 [64, 1, 3, 3]
00000000: 5193 14bc efab f7bd 5ba2 4bbe 0e77 40be
00000010: 5337 7ebe 9c08 fe3d 47eb 8fbe 5efe 013e
00000020: 613c 043e e71e 3fbe 8077 113e 9d4d 983d
00000030: f9e3 fb3d 1287 673e 4ef4 11be 7ef4 123e
00000040: 536e 2dbe d296 8d3d e068 18be f157 013e
00000050: cf17 273b 0115 40be 7673 9abe c103 383d
00000060: aafb 743e 3af8 003e 6cbe 69bd 8c0c 12bd
00000070: 24ec 503e c53f 76be 828c af3d fb50 40be
00000080: 354f 273e 88c4 e6bd 062d a7bc b832 a13d
00000090: d051 2b3e a0b5 15be 55ba a53e 2074 74be
000000a0: dac2 82be bd89 abbe 926c 473a 3e0b df3c
000000b0: 0de7 d4bc 4b73 a13d 64d4 bfbd 237b a3be
000000c0: 1bef 3f3e 7bad 603e fb32 7b3e d1f1 6a3e
000000d0: 0087 e13d 20c0 443e ad7c 853e 8de5 d6bd
000000e0: 6ad2 63be 2836 45be 87bc 3bbe 467b c9bc
000000f0: de20 70bd 18dd 013e f198 dc3d 1061 7ebe
00000100: 1bc2 4abe 7cae 983b 01ae 6d3e 5cb5 e8bd
00000110: 1aaf adbd a083 29bd ffbd 0abd c825 c7bd
00000120: e5d8 c1be 1e46 933e ced6 993d 1b1d 3fbe
00000130: 134d 73be 42ff 123d c193 303e 91a1 82be
00000140: 1015 08be e178 f83d d8ad 83be 6df4 5cbd
00000150: 4056 b0be a5b0 933e 5151 e83d fee2 a3be
00000160: e619 0ebe 9555 473d 6bcc 7a3c ac40 133d
00000170: 9e82 8cbe b3b5 5bbe 8298 633e c597 6fbe
00000180: 513a f7bd 1ad8 b33d d941 f63d bec3 223c
00000190: 0373 f53d 0b09 163e 7894 4dbd eec3 47be
000001a0: 3327 823e 5639 933e d0ff d93d 7c0d 43be
000001b0: 821b 86be 83f1 b8be 3960 40bd 54af adbd
000001c0: 1869 56bd 4e70 06bd f857 aa3e d7ab a63e
000001d0: 12e4 86bb bb48 31be 18df 153e d7f2 e3bc
000001e0: 77cd c9be 4202 0c3e 9553 563e f7b7 94be
000001f0: 83a9 debd 54b3 5dbc 2bf6 98be 90f6 82be
00000200: b047 823e 355f e7bd 158e 713e ff6d c03c
00000210: cab1 b73d 9a9d 56be 11a1 84bd 5e32 df3d
00000220: 722d e93d 4ec3 47be 1649 6ebb ccd5 5a3e
00000230: 94e0 c7be 3a3e 273e beb6 ecbd f27c 04be
00000240: e68c 193d 2a2c b9be fbb8 43bd 1431 9f3e
00000250: 573c 2a3d 74ef 5dbe 77f4 c0bd 0ee7 7a3e
00000260: 85d6 dc3c a183 3a3e 5e10 aabe c962 ab3d
00000270: d556 b23c 04e2 edbc 5d2b a43e c27d 5f3e
00000280: b682 403e 459d 5e3d 946d 063e 7886 bdbb
00000290: 7526 cebd 7939 bfbe 1de6 9fbe abad 36be
000002a0: 3f6d 953d b3bc 143e 0913 bebd 4127 77be
000002b0: f422 6f3e ef96 9b3d a691 de3d 16bb b43e
000002c0: a1f4 4abe 1482 3dbe d821 b5be e3ed 22be
000002d0: 3a37 a1be 699c 613e 48a7 29bc 2b56 e63d
000002e0: 9b19 a2be 0940 c7bd 68e4 7d3c d177 1fbe
000002f0: b1f1 5f3e c36d f8bd bd1c bb3d 6b86 81be
00000300: a1b2 96bd d44a 08be e096 073e d2a2 113e
00000310: 6895 323d ccc9 19be 4401 d7bd 158d 523e
00000320: 3a67 a7bd 7c9d 603e 8dd6 62be d033 973e
00000330: bade a13e f753 1a3e 8b2b 843e 74e0 833d
00000340: 2c15 2ebe 3395 febb 3ed5 ca3c 4ea3 9bbe
00000350: 7b8d e73d 93b3 193e aa19 a4be da13 62be
00000360: 4a6a d9bd eb9f c33d 99cd 2bbd 4bed c4bc
00000370: 3ec0 1dbe a9ae 4cbe d980 88bc 40e6 793e
00000380: d10e 6dbe e200 8a3e c1ae e33d 3891 613e
00000390: ea8d a4be 8a47 b8be f348 cd3d d808 b6be
000003a0: 91ac c9be ac5a 093e fba9 373e df75 7abe
000003b0: 4e4d 8d3e 8b4d 4abd 0df5 4e3e bf6b 1ebe
000003c0: 4efc 82be 30ab abbe c0af 13be 2ba0 58be
000003d0: 0dca 4439 a1c8 06be 669b bdbc 5db7 cdbc
000003e0: ad85 bf3d 897e 9bbe 52f5 5a3e f76d 7ebe
000003f0: 0336 633e 5ab3 6d3e fdde 09be 3ef0 4fbb
-0.009068326 -0.120933406 -0.19886152 -0.18795416 -0.24825792 0.12403986 -0.2810919 0.1269469
0.12913658 -0.18664132 0.14205742 0.074366786 0.12299342 0.22610119 -0.14253351 0.14351079
-0.16936617 0.06913532 -0.14883757 0.12631203 0.0025496369 -0.18758012 -0.30166215 0.044925455
0.23924127 0.12594691 -0.057066366 -0.035656497 0.2040258 -0.24047764 0.085717216 -0.18780892
0.16338809 -0.11267954 -0.020407211 0.07871002 0.16730428 -0.14620066 0.32368723 -0.23872423
-0.25539285 -0.33503523 0.0007607426 0.02722704 -0.02598908 0.078833185 -0.09366682 -0.31929883
0.18743555 0.21941178 0.24531166 0.22943808 0.11012077 0.19213915 0.26071683 -0.10493002
-0.22248235 -0.1925894 -0.18333636 -0.024594914 -0.058625095 0.12681997 0.10771359 -0.24841714
-0.19800608 0.004659472 0.23210908 -0.113627166 -0.084806636 -0.041385293 -0.0338726 -0.09724003
-0.3786079 0.28764433 0.07511674 -0.18663447 -0.2375987 0.035887964 0.17243864 -0.2551389
-0.13289285 0.12132431 -0.2571857 -0.05394404 -0.34440804 0.28845707 0.11343635 -0.3200912
-0.13877067 0.0486656 0.015307526 0.035950348 -0.27443403 -0.21456032 0.22226146 -0.23397739
-0.1207167 0.087814525 0.12024278 0.009934364 0.11984827 0.14651887 -0.05019042 -0.19508335
0.25420532 0.2875468 0.106444955 -0.19048113 -0.26192862 -0.3612176 -0.046966765 -0.08480707
-0.05234632 -0.032821946 0.3327024 0.32552978 -0.0041165436 -0.173129 0.14635885 -0.027825756
-0.3941457 0.13672736 0.20930322 -0.29046604 -0.108721755 -0.013531525 -0.2987531 -0.25578737
0.25445318 -0.11297456 0.23589356 0.02348995 0.089694574 -0.20958558 -0.064760335 0.10898279
0.11385621 -0.19508097 -0.003635948 0.2137062 -0.39038527 0.16332331 -0.11558293 -0.12938288
0.037487887 -0.36166507 -0.047783833 0.3109213 0.04156145 -0.21673375 -0.09421628 0.24502203
0.02695776 0.18214275 -0.33215612 0.08368451 0.02176992 -0.029038437 0.32064334 0.21825317
0.18799862 0.054349203 0.13127738 -0.005783852 -0.10065929 -0.37348536 -0.3123025 -0.17839687
0.07296228 0.14525108 -0.092809744 -0.24136068 0.23353177 0.07597148 0.10867624 0.35298985
-0.19819881 -0.18506652 -0.35377383 -0.15911059 -0.31487447 0.22032322 -0.010354824 0.11246904
-0.3166016 -0.097290106 0.015496351 -0.1557305 0.21869542 -0.121303104 0.09136341 -0.25297865
-0.073582895 -0.13309795 0.13241148 0.14222267 0.043599516 -0.15018386 -0.10498288 0.20561631
-0.08173986 0.21935076 -0.22152157 0.29531717 0.3161524 0.15071093 0.2581447 0.064392954
-0.17000264 -0.007769251 0.024759885 -0.3039803 0.11306282 0.15009908 -0.3205083 -0.22077885
-0.10615976 0.09551986 -0.04194412 -0.024038931 -0.15405366 -0.19988503 -0.016663002 0.2440424
-0.23150183 0.269538 0.11117316 0.22028053 -0.32139522 -0.3599208 0.100236796 -0.35553622
-0.3938947 0.13413495 0.17935936 -0.24459027 0.2759804 -0.049390357 0.20210667 -0.1547079
-0.25583118 -0.33529043 -0.14422512 -0.21154849 0.00018767286 -0.13162471 -0.023145389 -0.025111848
0.093516685 -0.30369976 0.21382645 -0.24846636 0.22188573 0.23212948 -0.1346397 -0.003172889

bias f4 [64]
00000000: e814 cfbd c3e1 653e 5bc9 93be f7b7 a8bd
00000010: 3ce8 043e 48a4 503e b0b7 7fbe 261a 85be
00000020: 23ff 913e 3cb8 813e 4a54 6a3e e8df 3c3e
00000030: 6f09 a5be 3457 ef3d e8f8 41bd c0c5 2e3d
00000040: 98ce 10be 0557 b43e 892e 0cbd 69cd 82be
00000050: 7e23 493e 5066 b83c 62dc 34be 99c2 30be
00000060: 0a48 41be ca48 ce3d b295 ac3d 9895 9bbd
00000070: 0fdd f43c 4106 57be 9d27 adbe be50 093d
00000080: 061e 983e f69c 7ebe 4081 c13d 3aa7 35be
00000090: 5e61 63bd ba78 8c3d 55a4 39be 93f7 8fbe
000000a0: b3dc 50bc 9bda e4bc 0753 723e a5b4 333e
000000b0: f6cb 253e f433 59be fdf7 86be ead6 53be
000000c0: ccda 77be 66be 5c3d 7d2c 0bbe 6cd6 2cbc
000000d0: eecc e1bd 4914 8fbd e4af 773d 3ecd b23e
000000e0: 4ce1 a6bd d21a 8b3e 6230 873e 4af8 3a3e
000000f0: b25c e0bc 4c84 c93d a808 71be a392 bb3c
-0.101114094 0.22449403 -0.2886456 -0.082382135 0.12979215 0.20375168 -0.24972415 -0.25996512
0.28514966 0.25335872 0.22883716 0.18444788 -0.3223376 0.116865546 -0.047356516 0.042669058
-0.1414131 0.3522264 -0.034224067 -0.2554734 0.19642445 0.022509724 -0.17662194 -0.17261733
-0.18875137 0.10072477 0.084269896 -0.07596892 0.029890565 -0.2099848 -0.33819285 0.033524267
0.29710406 -0.24864563 0.094484806 -0.17739573 -0.05551278 0.06858964 -0.18129094 -0.28118572
-0.012747931 -0.02793627 0.23664485 0.17549379 0.16191086 -0.21211225 -0.26361075 -0.20687452
-0.24204558 0.053892516 -0.1359119 -0.010549169 -0.11025415 -0.06986291 0.060470477 0.34922212
-0.08148441 0.271689 0.264041 0.18258777 -0.02738795 0.09839687 -0.23538458 0.02289707

weight f4 [64]
00000000: e014 a03f e4aa 5c3f 6b15 783f c709 6c3f
00000010: c570 8c3f 2371 613f 439c 833f e173 b13f
00000020: 747a 973f af75 853f 68b4 7b3f 2557 623f
00000030: b706 7e3f f6d1 8e3f a105 843f 6a88 833f
00000040: c8e0 6b3f 4f01 5d3f 54d3 ac3f 6a95 793f
00000050: d202 7a3f 6753 743f 69e0 513f 3ead 803f
00000060: 3135 9a3f 1ee5 7b3f 231b 8c3f 9580 943f
00000070: 71ff 5b3f 8c20 a13f 4b06 4c3f d53c 6d3f
00000080: 6d22 833f c112 573f 5c7a 6d3f b589 433f
00000090: 366d 583f 2967 723f 4926 863f 9d69 5e3f
000000a0: 0f1d c03f d8ea 6d3f 9bc9 5b3f d574 843f
000000b0: 0f89 893f 66e2 5f3f 8151 873f 81f5 843f
000000c0: 5d0d 743f 8f48 aa3f 2bf3 9a3f 0dad 5d3f
000000d0: 5330 4f3f 2c6d 973f f318 8f3f b5f4 483f
000000e0: 877e 543f 736b 7c3f 5a82 683f d6a5 903f
000000f0: 6f58 933f c4f7 893f b4f2 713f 08c4 763f
1.250637 0.8619826 0.9690768 0.9220242 1.0971915 0.8806326 1.0282062 1.3863488
1.1834245 1.0426539 0.98322153 0.8841422 0.99228996 1.1157825 1.0314218 1.0276005
0.92139864 0.8633012 1.3501992 0.9749361 0.97660553 0.9543976 0.8198305 1.0052869
1.2047483 0.9839648 1.0945781 1.160174 0.8593665 1.2588058 0.796971 0.9267095
1.0244881 0.8401299 0.9276483 0.76382 0.8454164 0.9468866 1.0480434 0.86879903
1.5008868 0.9293647 0.858545 1.0348154 1.0744952 0.8745483 1.0571748 1.0387422
0.9533289 1.3303393 1.2105459 0.8659218 0.8093311 1.1830192 1.1179489 0.78498393
0.83005565 0.98601454 0.908239 1.1300609 1.1511363 1.0778737 0.9451096 0.9639287

bias f4 [64]
00000000: 4f48 88bd 322f 44be 9ba7 ea3c 010a 0fbe
00000010: 5a3b 20be 87c0 00be 2aae 363d 0118 4ebe
00000020: 57a7 8ebd a38d 2b3b ed18 b73a a0bc 74be
00000030: dcae 393b d307 06bd dcd6 f33d fc84 81bd
00000040: 5030 4fbe 9c43 a0be 6db1 cbbc 966f c33d
00000050: 90bc 663d 90b2 a73c bdd0 61be f21c 05be
00000060: 83e0 f4bd 1023 93bc 2bae babd 10ea 103c
00000070: 9885 70be d7c2 94bd fe90 2dbe 1f01 51be
00000080: 9389 c73c 6c4b 21be 3065 04ba 3809 4abe
00000090: a7c5 50be 5bbb e2bd 95c0 4cbd 630f 38be
000000a0: 38c6 71be f53a 54be 836a 32be 83e3 09be
000000b0: 983d fcbd fdbb 6fbe 1bc7 ca3d 3d21 c43a
000000c0: c5bd 11be baff 29bd 4234 56be 61c4 0fbe
000000d0: a930 5fbe 2cc5 36be 2876 7dbd e233 39be
000000e0: aa14 76be 02a5 17be b348 32be ec75 54be
000000f0: 7662 75be ba51 2b3b 823c 993d 8c73 d03c
-0.06654417 -0.19158629 0.028644374 -0.1396866 -0.15647641 -0.12573443 0.04459969 -0.20126344
-0.06965511 0.0026176951 0.001396922 -0.2390008 0.0028332984 -0.032722306 0.119062155 -0.06324193
-0.20233274 -0.31301582 -0.024864877 0.09542768 0.05633217 0.020470887 -0.22052284 -0.12999323
-0.11956885 -0.017961055 -0.09115251 0.008844867 -0.23488462 -0.07263725 -0.16949841 -0.20410584
0.024357593 -0.15751427 -0.00050504785 -0.19730079 -0.20387898 -0.110708915 -0.049988348 -0.1797462
-0.2361077 -0.20725615 -0.17423443 -0.13465695 -0.123164356 -0.23411556 0.099012576 0.0014963519
-0.14232548 -0.041503645 -0.20918372 -0.14039756 -0.21795906 -0.17848653 -0.06188026 -0.18086198
-0.2403132 -0.14809039 -0.17410545 -0.20748109 -0.23963341 0.0026141242 0.07482244 0.025445722

running_mean f4 [64]
00000000: ba26 1dbe a064 7c3e 3013 9abe 5935 b3bd
00000010: 7320 bc3d a985 8a3e ff95 8bbe 8b77 9cbe
00000020: 661a 723e 5bc7 573e c830 4d3e 3635 643e
00000030: 5e85 acbe 0863 9c3d 4571 97bd 40c0 c63c
00000040: 5282 15be 13d1 d03e 7a0b b9bd 1e8a 91be
00000050: 2fbe 2e3e 2505 35bb 90c8 c2bd 32c2 66be
00000060: 8e44 64be 7bce 5c3d d39d 2f3d d2f9 00be
00000070: 9123 7c3d 517d 7bbe 2fd1 8dbe 512d b43d
00000080: b280 8e3e 44cb 24be 04b5 923d ddaf d6bd
00000090: b5f5 afbc 65f6 4d3d c2d3 52be f6fa 92be
000000a0: 7f1c 5cbd dbcc 9ab9 7a2a 6c3e 0309 2b3e
000000b0: 83c8 e93d 2c87 66be 8229 96be 33e8 5abe
000000c0: 523c 79be 0edf 4f3c 89f6 34be f21a 85bc
000000d0: 5452 cabd 40f4 e3bd 07a7 a23a d42e e03e
000000e0: ff4b 24bd 9dc4 873e 4876 823e dcb0 183e
000000f0: b434 8ebd 5812 a33d ceb5 89be f8fc 76bc
-0.15346804 0.2464776 -0.30092764 -0.0875041 0.09185877 0.270551 -0.27262875 -0.30559954
0.23642883 0.21072142 0.2003814 0.22285923 -0.336955 0.07636076 -0.07394651 0.024261594
-0.14600495 0.4078451 -0.09035392 -0.28425688 0.17064737 -0.0027621475 -0.095109105 -0.22535017
-0.22291777 0.053907853 0.042875122 -0.12595299 0.061557356 -0.24559523 -0.27698657 0.08797706
0.27832562 -0.16093165 0.07163432 -0.10482762 -0.021479467 0.05028381 -0.20588592 -0.28707093
-0.053738113 -0.00029525798 0.23063079 0.16702656 0.11415198 -0.22512501 -0.29328543 -0.2137764
-0.24339417 0.012687458 -0.1767217 -0.0162482 -0.09878984 -0.11130571 0.0012409397 0.43785727
-0.040111538 0.26517192 0.25480866 0.14911216 -0.06943646 0.07962483 -0.26896518 -0.015074961

running_var f4 [64]
00000000: e31f d13c e951 fb3b 3b8c 2c3c 09b5 723b
00000010: 6602 d03c 5fd6 2f3d 9e4f 4a3c b929 7f3c
00000020: 2dcd d73c 6c25 bf3c 011c 5e3c fb25 583c
00000030: db09 103d a243 003d e39d 823c a6e3 ac3c
00000040: 136f 863c 5cae d43c bf61 f93c 5f9a c93c
00000050: 30de 483c cd91 eb3b e5f3 2a3d a88a ee3c
00000060: ba4a 503c 0b58 813d e6af d73c 6a45 873c
00000070: 5edb 8f3c 59f8 263c e3c9 053d 2071 a23c
00000080: 5433 af3b 6c7a 2b3d e486 8e3c 752f 033d
00000090: 28ba 3d3c c34e 093d 71e0 c83c a0e0 853b
000000a0: e783 8e3c 8cd7 9d3c 5044 8c3c 45ce 563c
000000b0: 365b c13c 866c 753c a29d 383c f1c2 3f3c
000000c0: 1241 2d3c 33af 9b3c 09bc e63c 0a63 6c3b
000000d0: 35d6 803c 2bda 833c faeb 233d 0352 303d
000000e0: 40f7 953c 78aa e03c 183f 103c 8f93 a53c
000000f0: dc9f 1d3d 8945 a43b 095b b73c 8d7c c43c
0.0255279 0.0076696766 0.01053148 0.0037034175 0.025391769 0.04292905 0.012348084 0.015573912
0.026342953 0.023333274 0.013556481 0.013192649 0.03516565 0.0313145 0.015944427 0.021104645
0.016410386 0.025962047 0.030442117 0.024609743 0.012260005 0.0071890117 0.041736502 0.02911885
0.012713129 0.06315621 0.026328992 0.016512591 0.017560657 0.010191047 0.032663237 0.019829333
0.005346695 0.041864797 0.017398305 0.03202768 0.011580028 0.03352238 0.024521085 0.0040856153
0.01739688 0.01926782 0.017122418 0.013110702 0.023603063 0.014979487 0.011268051 0.0117041925
0.010574596 0.01900444 0.028165834 0.0036069774 0.015727142 0.016095242 0.040019967 0.043046962
0.018306375 0.027425036 0.008804105 0.020211963 0.038482532 0.005013172 0.022382276 0.023985172

weight f4 [64, 64, 3, 3]
00000000: c3a2 01be 0433 ddbb e052 833b d43f 0cbd
00000010: 1465 623c f192 963d ecf5 3bbd 34fe 66bc
00000020: a195 923d c065 223d 4abd 52ba 32d4 883c
00000030: 8592 a4bb d27c 33bc de08 3cbd f498 6d3c
00000040: 9e31 0e3d ea2f 5f3c a0ff 89bc 0c82 c7bc
00000050: dd41 abbc 800f 9a3d 127f 84bd 0618 01bd
00000060: 4df8 193d 7e4d 47bc c5de cc39 6be7 a03c
00000070: d8e1 4e3c 1400 b5bc 185b a13c f2d4 82ba
00000080: 90ad aebc 65e5 513c 6b08 c23b ba93 913c
00000090: a47a 8ebc 88d3 81bd dc6a 1e3d 7518 24bd
000000a0: b075 50bd bbfc da3c bcca c3bc 3b67 1bbd
000000b0: 384a 24bc 3bea 953c 3008 19bd cc30 e23c
000000c0: fd0d 9fbc 235d 373b 2604 0fbd ec70 c63c
000000d0: 1934 17bd 748a 7e3c 4742 28bd d089 9c3c
000000e0: 3afd 063c 6050 4ebb df7d 89bb bf18 07bd
000000f0: f4ac ce3c 72fd 033c 0cfb d7bc de0d c1bc
00000100: d99c aebd 5153 80bd cd5e c93d ed27 efbb
00000110: 049c efbc b01f dd3c 49c6 7dbd a85f 8ebc
00000120: bdd6 dc3c 568d 5bbd 5dc1 533b c073 bcbc
00000130: a93e 96bd 9de0 1a3d 2975 09bd e71c 5abd
00000140: 91a6 7abb 116a 01bc 583c 563b 78ff 8d3d
00000150: 93cb 653d 04c6 0ebd a23a 823c e542 32bd
00000160: cf20 babc 547b c93c 2615 09bd c8a3 e53c
00000170: efd5 c3bc c9fa 0d3d e738 53bc a61f f83c
00000180: b4db 7dbc 79b7 a8bb bb3a c3b9 e593 fcbc
00000190: 71d6 913c c124 5e3c ad62 5f3d 7e2e b7bc
000001a0: 5def 0abc f0f8 5e3d b166 4d3d 8777 a9bc
000001b0: 74ad 51bc 6295 af3c 0a86 5fbc cd24 40bb
000001c0: 608f a1bd 374e 0abd 3037 473d 10b4 bcbd
000001d0: 8433 9bbd 91a2 8f3b 9482 b1bb d225 88bc
000001e0: 8194 1c3d 3826 893c ff08 c63c e724 01bd
000001f0: f5dc ca3c efd3 c13c 2807 e33c 60ca 88bd
00000200: 220d 3a3c 8b3e 773d 1188 f1bb e5cf 943b
00000210: a265 b9bc e2fb 29bd 05b4 043d 7985 0a3d
00000220: f6a8 0cbb 17e2 d3bc 4cdc 043c 292f 953d
00000230: 23a1 8f3c e469 283d 1f1f d13d 5dc8 1fb9
00000240: f5cb 0abd 488c 90bd f40e 943c e66a 8b3c
00000250: e75d 893b 99db 12bd f49a 2b3d 3d52 85bd
00000260: 42af e2bc e7c8 a03b 871b 45bd f0da c63c
00000270: 02f2 883d 6233 a5bb c964 803d 7389 bf3d
00000280: 0c2e 413b 975e 853c 600b 99bc c110 3ebd
00000290: 3a4d b63c 9c41 1cbb 0e6e d8bd 7721 46bd
000002a0: 598f 9b3c d3f1 6cbd 143e a6bd d55d 2cbd
000002b0: ea89 af3c cdf8 0bbc 9224 573b f125 8cbd
000002c0: cc98 f5bc 9c16 b73b a86d 3c3d 7e98 b43c
000002d0: 7303 a4bb a6fa dcbc 724e 623d 4cae adbc
000002e0: 6c18 063d d7e7 003d 5140 033d 64b5 d63b
000002f0: d521 6a3d fa2d 22bc 3b64 15bd 60d3 20ba
00000300: b62b 96bc de31 a93c 355f a93b d066 1ebd
00000310: 4e76 27bd 1de4 203b b70a 7d3c f028 353c
00000320: a6e6 f83c 1b1f c63b 54b3 83bc c4af a9bb
00000330: bfc2 973b 95ac 4e3b 0c30 d5bc c763 063d
00000340: 4a07 d43a fc6b aebc 8d93 b1bc e104 883d
00000350: 4dd2 543d 6f94 34bc de1f 4c3d 2707 083d
00000360: 1527 0c3c a7e0 20bc 4b14 a6bc 4323 1d3c
00000370: 5ebc d03c 3efb 5d3c 502f 99bd 9f32 89bc
00000380: ef8d e9bb f43c 213d 5ad6 9cbc d9f2 683d
00000390: c995 973c 26a2 1e3d 1281 973d 6855 dd3a
000003a0: 7c98 703a df60 a13d 8ba6 2cbc ef21 1ebd
000003b0: 1123 633d db8e 833c 6448 43bc f03d 803c
000003c0: c8bc 1abd 4958 023d 0e28 1a3d f64e 02bd
000003d0: 2e7c 273d d67a a03c 78f2 75bd 8c17 743d
000003e0: 076c 273d 7726 f5bc c974 633c 9b02 0c3d
000003f0: 3a86 bd3b a90c 0c3d 0062 48bc 42ba 20bd
-0.12659745 -0.0067504663 0.004007682 -0.03424056 0.013818044 0.073522456 -0.045888826 -0.014098693
0.07157446 0.039647818 -0.00080390705 0.016702745 -0.0050223493 -0.010955052 -0.045906894 0.014501799
0.034715287 0.013622263 -0.016845524 -0.024354003 -0.02090543 0.07522488 -0.06469549 -0.03151705
0.037590314 -0.012164472 0.00039075888 0.019641599 0.0126270875 -0.022094764 0.019696757 -0.0009981676
-0.021322995 0.01281104 0.0059214137 0.017770637 -0.017392464 -0.063391745 0.038676128 -0.040062387
-0.050893486 0.02673184 -0.023900382 -0.037940245 -0.010027461 0.018300166 -0.037361324 0.027611159
-0.01941585 0.0027979098 -0.034916066 0.024223767 -0.03691492 0.0155359395 -0.041078832 0.019108683
0.008239085 -0.0031481013 -0.004195913 -0.032982584 0.025228955 0.008056032 -0.026364826 -0.023566183
-0.0852601 -0.06265891 0.09832535 -0.0072984607 -0.029249199 0.026992649 -0.061956678 -0.017379597
0.026957864 -0.053601585 0.0032311298 -0.023004413 -0.0733617 0.037811864 -0.033559 -0.05325022
-0.0038246254 -0.007898823 0.0032689776 0.069334924 0.056102347 -0.03485681 0.015897099 -0.043520827
-0.022720722 0.02459494 -0.033467434 0.028032199 -0.023905722 0.034662995 -0.012891985 0.030288529
-0.015494276 -0.005148825 -0.00037237056 -0.03083224 0.017802449 0.0135585675 0.054537464 -0.022361036
-0.00847992 0.054436624 0.050146762 -0.020686878 -0.012797702 0.021433536 -0.013642797 -0.002931881
-0.07888675 -0.033765998 0.048636615 -0.09214032 -0.07578185 0.004383393 -0.0054171775 -0.016619597
0.03822756 0.016741857 0.024174212 -0.031529333 0.024763564 0.023660628 0.027713373 -0.06679225
0.01135567 0.06036238 -0.0073709567 0.0045413845 -0.02263147 -0.04149998 0.032398243 0.033818696
-0.0021463013 -0.025864644 0.0081091635 0.07284386 0.01753289 0.04111661 0.10211014 -0.00015238063
-0.033885915 -0.070580065 0.018073536 0.017018747 0.0041921022 -0.035853956 0.04189582 -0.06509826
-0.02767146 0.004906762 -0.048121955 0.02427432 0.06686784 -0.0050415257 0.06269223 0.09352388
0.002947691 0.016280456 -0.018682182 -0.046402697 0.022253621 -0.0023842817 -0.10567866 -0.04837176
0.018989252 -0.05784781 -0.08117309 -0.042081673 0.021428067 -0.008543205 0.0032828194 -0.06843174
-0.029980086 0.005587412 0.046003014 0.02204537 -0.005005294 -0.026974987 0.055250593 -0.021201275
0.032738134 0.0314711 0.03204376 0.006552385 0.05716117 -0.009898657 -0.03647254 -0.0006135013
-0.01833139 0.020653661 0.0051688203 -0.03867227 -0.04088431 0.0024550029 0.015444449 0.011057124
0.03038342 0.0060461885 -0.016076721 -0.0051784236 0.00463137 0.0031535972 -0.026023887 0.03281
0.0016176489 -0.021291725 -0.021676803 0.066415556 0.05195837 -0.011021717 0.04983508 0.033209946
0.00855424 -0.009819186 -0.020273348 0.009590927 0.025480445 0.01354867 -0.07479727 -0.01674777
-0.0071275155 0.03936477 -0.01914518 0.056872223 0.01850404 0.038728856 0.07397665 0.0016886415
0.00091779954 0.07879805 -0.010537754 -0.03860658 0.055453364 0.01605933 -0.011919115 0.015654534
-0.037777692 0.031822477 0.037635855 -0.031813584 0.04088991 0.019589823 -0.06004569 0.05959277
0.040874507 -0.029925568 0.013882824 0.034182172 0.0057838233 0.03419176 -0.012230396 -0.03924013

bias f4 [64]
00000000: 5ea3 7bbc c893 a13c 3924 dd3c 0e28 9c3c
00000010: 244b 24bd 3bd9 f5bc 8258 933c f540 d03c
00000020: 7365 0a3d 980c 8ebc e531 02bd 68bb 2b3d
00000030: 764d f8bc 5edf 11bd 9b67 f4bc 0245 213c
00000040: 2b5c 043d 68ca aebc fd7b 16bd 2e36 003d
00000050: bba7 deba 5517 afbc 4b2c 6f3c e1fd 45bc
00000060: 4ba5 0fbb 1c1d 9fbc d659 c53c 3dbb ac3c
00000070: c690 cabb 606d 4d3d 1455 5a3c 4dec 23bd
00000080: 1dba 47bd f082 96bb ff73 3d3d f7c5 c0bc
00000090: 3920 8ebc 5174 f9bc 1d9d 2b3a 8a63 2f3d
000000a0: 272b 90bc 2b1b 42bd 07ab 983c ab88 20bc
000000b0: b781 2f3d da3c 793c 7374 99bc 57f8 f9bc
000000c0: 7d20 183c 2e20 b7bc bae6 e33c 33ca 30bd
000000d0: a822 1d3c f12e bdbc 679f 183d c771 e33c
000000e0: f2e1 c23c b923 3bbd b59e 023d e353 133c
000000f0: e00a 453d 4bbd 343a 69a3 d9bc 2b30 003c
-0.015358774 0.019723788 0.026994811 0.019062068 -0.040110722 -0.03001081 0.01798654 0.025421599
0.033788156 -0.01733999 -0.031785864 0.04192677 -0.030310374 -0.03561341 -0.02983456 0.009843113
0.03231446 -0.02133675 -0.03673934 0.03130167 -0.0016987243 -0.02137343 0.014597963 -0.012084455
-0.002191859 -0.01942306 0.024090689 0.021085376 -0.006181809 0.050153136 0.013325948 -0.040020276
-0.048761476 -0.0045932457 0.0462532 -0.023531897 -0.01734935 -0.030450972 0.0006546544 0.042819537
-0.017598702 -0.04738919 0.01863624 -0.009798209 0.042848315 0.015212262 -0.018732285 -0.030513925
0.00928509 -0.022354212 0.02781998 -0.043161582 0.009590782 -0.023093672 0.037261393 0.027764214
0.02378938 -0.045688365 0.031889636 0.008992168 0.048106074 0.0006894662 -0.026567178 0.007823984

weight f4 [64]
00000000: 9de9 773f 1bf7 6b3f a516 7a3f e006 7e3f
00000010: b96d 613f 8254 8a3f d81f 8e3f 415d 8f3f
00000020: c8d6 783f fc85 893f 653c 7e3f 92a1 5c3f
00000030: 6cd5 873f f2aa 843f 2002 623f b63b 633f
00000040: 75f0 823f e108 8c3f f81a 7d3f e340 7e3f
00000050: e1db 733f 2b83 7d3f 05d8 813f 4029 783f
00000060: dee6 843f d88c 6c3f 5f19 733f 2f7e 6a3f
00000070: 98f5 793f db51 833f 7cbb 843f 7bd7 833f
00000080: 7d6e 863f cb14 703f 07ff 7e3f 8dad 763f
00000090: 456d 803f 545b 813f 0ffc 773f 80a1 693f
000000a0: 338d 893f efd2 883f ee1c 733f 5a5a 853f
000000b0: e98f 753f cd40 7b3f 35d4 743f bdbe 893f
000000c0: 9c48 743f 8d1f 843f 1389 843f 098e 863f
000000d0: b3ba 853f 655b 883f 2122 913f dc93 7a3f
000000e0: b48f 763f 4b87 7a3f 5ee6 843f d0e6 793f
000000f0: a526 723f a3f3 863f 5149 843f 1adf 863f
0.9684084 0.9217393 0.976908 0.9922924 0.8805805 1.080704 1.1103468 1.1200334
0.9720273 1.0744014 0.99310905 0.86184037 1.0612006 1.0364668 0.8828449 0.88762987
1.0229632 1.094021 0.98869276 0.9931776 0.95257384 0.9902827 1.0144049 0.9693794
1.0382955 0.9240241 0.9496059 0.9159879 0.9764037 1.0259355 1.0369716 1.0300134
1.0502468 0.9378173 0.9960789 0.9635857 1.0033346 1.0105996 0.96868986 0.91262054
1.0746216 1.0689372 0.9496602 1.0418198 0.95922714 0.98145753 0.956363 1.0761334
0.95423293 1.0322129 1.0354332 1.0512096 1.0447601 1.0652891 1.133854 0.97881866
0.96313024 0.9786269 1.0382802 0.97617817 0.94590217 1.0543102 1.0334874 1.0536835

bias f4 [64]
00000000: e05e 80bd 1724 46bd 7238 c1bd 2d3f 89bd
00000010: e0d8 0cbe cbd6 81be 18e3 893c ca66 41bd
00000020: 9601 7dbb 099c 9fbd eba2 f9bd 6fe8 06be
00000030: 2627 d0bd 0e65 bbbd 449b 91be c0ce eebd
00000040: 2e98 e7bd 86bd 33be 242d 593c 1932 45bd
00000050: a355 4cbd e526 06be 0841 37bd ed9d 5fbe
00000060: a363 dfbc d842 47be 2cc5 c6bd fda3 e6bd
00000070: ac7c e5bd 45b6 85bd ecf0 003c b176 9fbc
00000080: f9b3 89bd c7bf d6bc 639c e2bd 9256 40be
00000090: 6f17 0dbe 4b80 40bd 51e3 75bd 4dbb e7bd
000000a0: 470f 123d a070 35be df9c 51bd b563 1dbd
000000b0: c132 33be 7ebd e6bd 0791 293c 944c c6bc
000000c0: cb73 fcbd 1d58 55bd bcc7 a7bb eb74 dbbb
000000d0: c02c 8dbd 13ca 02be 492a 0dbe 0786 68bd
000000e0: 671e cebd b7a8 aabd 2707 b1bd 438e 88bd
000000f0: 3edb f3bd 6e79 a8bd 51e2 b2bc a237 c53b
-0.06268096 -0.04837426 -0.09434594 -0.06701503 -0.13754606 -0.25359187 0.01683192 -0.047217168
-0.0038605682 -0.07793433 -0.12189277 -0.13174604 -0.10163717 -0.09150134 -0.2843877 -0.11660528
-0.11308323 -0.17552766 0.013255391 -0.04814348 -0.049886357 -0.13100775 -0.044739753 -0.21837588
-0.02726919 -0.19459093 -0.09705576 -0.11261747 -0.1120542 -0.06528906 0.00786994 -0.019465776
-0.0672378 -0.026214493 -0.11064985 -0.18783024 -0.1377847 -0.04699735 -0.06003124 -0.11315022
0.0356591 -0.17718744 -0.051174995 -0.038425166 -0.1749983 -0.112666115 0.010349519 -0.024206437
-0.12326773 -0.052085984 -0.0051202457 -0.0066972873 -0.06893301 -0.12772398 -0.13785662 -0.056768443
-0.100643925 -0.08332961 -0.08643942 -0.06667759 -0.119070515 -0.08226286 -0.021836432 0.006018595

running_mean f4 [64]
00000000: 952c f83e 573f 303e 8436 1abf a569 8d3e
00000010: 2ed0 433f 7840 d93f a109 26c0 2d92 aa3f
00000020: 71e9 4dbf 6c74 4ebf e408 f4be b80a 883f
00000030: 30a1 adbf b685 47bd 93e4 b83e d2a0 ae3e
00000040: 8be1 a8bf 3ac0 943f 2523 e8bc 42ab c1bf
00000050: fe57 5f3e 4216 cabe 2b9f 08bf f294 e7bd
00000060: ab83 81bf 46b5 eabe 9ad6 793f 7c8e 02be
00000070: 143f 31bf 2cf3 81bf 5fe5 87bf 52d6 2f3f
00000080: 98e0 8dbf e589 47bf c196 3abf 0094 0e3f
00000090: f16d 21bf f2be 8dbe 22c6 e4be ec16 afbe
000000a0: 88c8 b2bf 7215 b93f ce86 18bf 06e5 6abf
000000b0: 07b8 88be b1f2 b9be 612c 9fbe 16c4 4dbe
000000c0: 2b8f dbbe e932 963f 30da f8bf e3e3 c1be
000000d0: 0f64 0dbf fa41 6c3f 00e1 093f 993c 52be
000000e0: 0d16 f2bd 638d 56bf 6236 89be 81b0 22bf
000000f0: 77b8 febd 7301 393f abcf 7dbe 7111 c3bf
0.48471513 0.17211662 -0.60239434 0.27619663 0.7648953 1.6972799 -2.5943377 1.3325859
-0.8043433 -0.80646396 -0.47663033 1.0628271 -1.3564816 -0.0487115 0.36111888 0.3410707
-1.319383 1.1621163 -0.02833707 -1.5130389 0.2181091 -0.39470106 -0.5336787 -0.11307706
-1.0118307 -0.45841426 0.9759308 -0.12749666 -0.69236875 -1.0152335 -1.0616874 0.686864
-1.1084166 -0.77944785 -0.7288628 0.5569458 -0.6305838 -0.27684742 -0.44682413 -0.34197176
-1.3967447 1.445967 -0.59580696 -0.9175571 -0.26702902 -0.3631797 -0.31088546 -0.20094332
-0.42882666 1.1734287 -1.9441586 -0.37869176 -0.552308 0.9228817 0.5385895 -0.20530929
-0.11820612 -0.8380949 -0.26799303 -0.63550574 -0.124375276 0.72267836 -0.2478625 -1.5239698

running_var f4 [64]
00000000: 9143 d23f 9597 e23f b56f 3d3f 03af 7e3f
00000010: a9b3 843f eb90 5d3f 9b67 6140 1d26 9b3f
00000020: b50c 743f 590d d43f e6f6 b93f 13cc 3340
00000030: ada3 4140 b7a8 943f 6136 ae3f 1023 853f
00000040: c494 1e40 610f 2a3f 03d3 d13f 31cb 0340
00000050: 4336 df3f 3855 f33f e5f3 973f 6703 c13f
00000060: 07c7 973f 7f08 c63f 3a80 0840 aca0 df3f
00000070: fa4b b43f 145b 3940 921e 2740 f0a6 9a3f
00000080: 530d ae3f 101e ca3f 95b3 7f3f 3db0 0440
00000090: 9efc c63f b3e4 c63f 6ebc b43f 33e3 543f
000000a0: c4d4 8b3f 761c 723f 9438 0e40 f90f 0140
000000b0: ff90 2b3f 1e4d 693f c0d6 993f 2325 d43f
000000c0: 411b e43f 1ca5 6f3f 2263 3b40 9ad3 d13f
000000d0: 07e2 f73f c7d8 953f cfc2 863f e558 8e3f
000000e0: b45b c13f 8d29 bc3f b88f cc3f 25f1 0c40
000000f0: 41cd 0240 2df5 9d3f f450 973f 3ecd c33f
1.642687 1.7702509 0.73998576 0.99485797 1.0367328 0.8654925 3.5219486 1.2121006
0.9533189 1.6566573 1.4528472 2.8093307 3.025615 1.1613988 1.3610345 1.0401325
2.47783 0.66429716 1.6392521 2.0592768 1.7438434 1.9010382 1.1871306 1.5079163
1.1857613 1.5471343 2.1328263 1.7470908 1.4085686 2.896184 2.6112409 1.2082195
1.3597816 1.5790424 0.99883395 2.0732567 1.5545843 1.5538543 1.4120004 0.8315918
1.0924306 0.9457468 2.2222033 2.0166 0.6701812 0.91133296 1.2018661 1.6573833
1.7820817 0.9361131 2.9279256 1.6392701 1.9365853 1.170678 1.0528201 1.1120878
1.510611 1.470018 1.598136 2.2022183 2.0437777 1.2340447 1.182158 1.529701

weight f4 [64, 64, 3, 3]
00000000: c4a4 06bd 0187 17bd 6c24 973c 0c65 063c
00000010: 28fa b9bc c283 4c3d a7ce b1bc 66cc 843c
00000020: a82a b43d ef25 cabc eab6 293d 63ba 87bb
00000030: cf36 d0bc 5fff ef3c cb28 a33c 04c9 6e3d
00000040: da6f 513d 9037 4f3d 0286 0fbc f76c 86bb
00000050: 245e 42bd 6e38 afba 5c82 9339 36cd ecbc
00000060: 53d3 173a 55ac 15bd 9ac5 0abd 6c74 df3b
00000070: 6fb5 203d 30b5 253d 0f35 8f3b aa68 083d
00000080: 2ced 1bbd ad46 ea3c 3ff8 4cbc c643 82bd
00000090: 6f50 00bd 6278 783c cf5f 813b 1e9f a43c
000000a0: f1e2 1a3b 1840 c5bd 3bc5 b7ba 7678 8ebc
000000b0: a45b e8bd 0016 013d 1a20 cb3c db53 fcbc
000000c0: 7c2c d9bc e818 683d 33b5 94bd 803d 413d
000000d0: c7b6 73bc 58cc 94bd 7e21 023a 3a3e 72bc
000000e0: 8637 5539 3f7c 203d 39fe 03bc 0b3f 5a3c
000000f0: 4abc e43c 13ec 14ba 78e6 c2bc 9b39 153d
00000100: 3b66 803c e033 8f3d 90d4 02bb feee 083e
00000110: 9d94 003d 207e 263d 0890 143d 6b63 c4ba
00000120: 32f3 50bd 60de a93c ecd2 db3c 84b1 4d3c
00000130: 868a a73c e4b4 5e3d de59 ba3a 05c8 9e3c
00000140: d0e0 19bd 3696 09bc cde4 393d 8c84 c6ba
00000150: 2c63 eb39 bd73 543c 1300 583d a983 b8bc
00000160: 82a0 693c b692 2f3d 6a89 34bd c1fe 56bd
00000170: 988b 98bd 0610 7cbc 9019 e43a 31d7 51bd
00000180: 9094 073d f61f 1fbd fdd6 09bc 7732 96bb
00000190: 4e9a f2bc 0220 303c ce90 3ebd a768 92bc
000001a0: f9fb 413d 1dcb 0abc 8759 533c c093 373d
000001b0: 2d22 8ebb e481 943d e12d c83c 5ffa 8b3c
000001c0: 20af ceba 61d0 db3c dfab abbc b339 a43c
000001d0: ebfc dabc 2a5a a4bc 6d67 d73c 4275 fcba
000001e0: 6ece 7cbd e3d4 c63c db47 10bd ab68 393d
000001f0: 9f8c ebbc b56e 52bd 492c d23a ed82 febc
00000200: 403f 663c 199e 01bc 682b ef3c 1f28 bf3d
00000210: 453b 20bc 2918 b53c 685d 5cbb cb8f 19bd
00000220: ec86 963b 7d4f c93a 10e6 81bd 33c5 af3c
00000230: 4d6c cc3d 3561 c6bc c87b 43bc 4ddf ba3b
00000240: 1fa4 d93c 22cd 98bb c0cc 923c 8645 ddbc
00000250: 1bdb 78bb e856 263d 3cc0 223c db97 7a3b
00000260: b836 0e3d 065a d2bc 6d05 0abd 0649 243d
00000270: 943b 6abc f958 353d 34db 3dbc fe41 af3a
00000280: 80f1 d4ba 30dd a8bc fb96 d5bb 249a 5dbd
00000290: c6cb 093d 45b2 dcbc e62c c63b 1158 bbbc
000002a0: 3bd4 56bc 386d e1bc 28f1 e63c 5aa3 553d
000002b0: 2908 b3bb 3fa8 283c 562f f1bc ae54 933c
000002c0: e81a 65bd 3a1d 353a 1f30 28bc cfdf a4bc
000002d0: ddfd dcbc 7fc1 9b3c aca7 8e3d 3994 adbd
000002e0: c566 8abd 77c1 a73d c7f0 a5bd 352a 7e3c
000002f0: b549 673d f8d0 0fbd 2fda 60bd af5d 03bd
00000300: 726b cebd a5d5 fdbc 594b fb3b 4840 37bc
00000310: b766 81bd 2d54 5f3d a51f 2ebd 783f 41bd
00000320: eb8b 533d 7acb 51bc 2cd1 25bd f165 803d
00000330: bc52 30bc 4a13 983c 97a0 293d 4210 58bd
00000340: 5ffb 2fbc 462c d93c 1709 03bd ccd7 83bc
00000350: 2b1b 8c3d 67d2 5ebd ab1f 883c cb87 103d
00000360: 78d2 d4bc 6c9a 0dbc 3990 1fbd 56c2 d53c
00000370: 1558 393d 7316 58bd b64b b0bc db61 7bbc
00000380: 8d11 84ba 64e9 1cbd fa80 b13c 112d 8f3d
00000390: 9572 a0bd f201 033d 309d c43c 3584 90bc
000003a0: 4008 4aba 049b 27bb 95dd 71bd cef4 973d
000003b0: 3ba5 d83c f2b2 bc3b 773d 22bd 7a26 11bd
000003c0: cc1e 9e3c e684 bdbc a946 2bbc f3f8 9fb9
000003d0: 0bef 163d 464d abbb 589f 0bbd 90f3 9c3c
000003e0: a097 d73b 5b1f 8bbb c489 5b3d 0365 79bd
000003f0: df28 81bd 942b a53c c18e 973d cf07 a4bd
-0.032871976 -0.036993984 0.018449984 0.008202802 -0.022702292 0.04993034 -0.021704985 0.016210746
0.087971985 -0.024676291 0.041434206 -0.004142092 -0.02541676 0.029296575 0.019916913 0.058297172
0.05113206 0.050590098 -0.008759977 -0.004102345 -0.04745306 -0.0013368258 0.0002813515 -0.028906446
0.00057916826 -0.0365413 -0.033879854 0.0068192985 0.03923553 0.040455997 0.0043703387 0.03330294
-0.03806798 0.028598154 -0.012510358 -0.06360583 -0.031326707 0.01516542 0.003948189 0.020095404
0.0023633803 -0.096313655 -0.0014020571 -0.017391425 -0.11345604 0.03151512 0.02479558 -0.030801704
-0.02651047 0.056664377 -0.072611235 0.04717779 -0.0148751205 -0.07265538 0.0004964097 -0.014785344
0.00020333947 0.03918099 -0.008056217 0.013320695 0.027921814 -0.000568093 -0.023791537 0.03643189
0.015673747 0.06992316 -0.0019963123 0.13372418 0.03139173 0.040647626 0.03627017 -0.0014983242
-0.05101318 0.02073592 0.026833974 0.01255453 0.020451795 0.05437173 0.0014217456 0.019382486
-0.037567914 -0.0083976295 0.045384217 -0.0015145703 0.00044896582 0.012967047 0.052734446 -0.022523718
0.014259459 0.042864524 -0.04407636 -0.052489046 -0.074485004 -0.01538468 0.0017402638 -0.051230613
0.033100665 -0.03884884 -0.008413074 -0.0045836526 -0.029614594 0.010749819 -0.046524815 -0.017872168
0.04735944 -0.008471278 0.012899763 0.04481864 -0.00433757 0.07251337 0.02443594 0.01708716
-0.0015768744 0.026832761 -0.020955978 0.020047044 -0.026731929 -0.020062525 0.026294434 -0.001926102
-0.061720304 0.024271434 -0.035224777 0.045265835 -0.028753577 -0.05137511 0.0016034927 -0.03106829
0.014053166 -0.007911229 0.029195502 0.09333824 -0.009779756 0.022106247 -0.003362501 -0.037490647
0.0045937207 0.0015358772 -0.06342709 0.021456337 0.09981594 -0.024216274 -0.011931367 0.005702889
0.026567517 -0.0046631256 0.017919898 -0.02701069 -0.0037972394 0.040610224 0.009933528 0.0038237486
0.034720153 -0.025677692 -0.03369658 0.040108703 -0.014296431 0.044274304 -0.011587907 0.0013371108
-0.0016246289 -0.020613283 -0.0065182424 -0.054102078 0.0336416 -0.026940474 0.006047833 -0.022869142
-0.013112123 -0.0275179 0.028191164 0.052157737 -0.0054636193 0.010294019 -0.029441517 0.017984714
-0.055933863 0.0006908957 -0.010265379 -0.020126252 -0.02697652 0.019013165 0.069655746 -0.08475537
-0.06757883 0.08191197 -0.08102565 0.015512993 0.056466777 -0.035111398 -0.054895576 -0.032071766
-0.10079087 -0.030985663 0.0076688942 -0.011184759 -0.063184194 0.054523636 -0.042510647 -0.04717967
0.051647108 -0.01280486 -0.040482685 0.06269444 -0.010761913 0.018563885 0.041412916 -0.05274988
-0.010741084 0.026510369 -0.03199109 -0.01609411 0.068411194 -0.054399874 0.016616663 0.035285752
-0.025979266 -0.008642774 -0.0389559 0.026093643 0.045250017 -0.052755784 -0.021520477 -0.015343155
-0.0010076031 -0.038308516 0.021667946 0.069910176 -0.07834355 0.031984277 0.024000734 -0.017641166
-0.0007706918 -0.0025574574 -0.059049208 0.0741974 0.026445976 0.0057586366 -0.0396094 -0.035437085
0.019301794 -0.02313466 -0.010453858 -0.00030512325 0.036849063 -0.0052277176 -0.03408751 0.019159108
0.0065793544 -0.004245681 0.05359818 -0.060887348 -0.06306624 0.020162381 0.07400275 -0.08009302

bias f4 [64]
00000000: 1174 bd3b 076d bdbc d242 99bb f93b 0dbd
00000010: ffc2 7dbb cf3b 2fbd e804 eb3c 0572 13bd
00000020: 7235 22bb d976 873c 4e97 80bb e034 33bc
00000030: e483 96bc a77e 1abb 6456 7bbc df3b ef3c
00000040: 7da6 853c 64f4 273c aac2 2b3d 6ee1 24bd
00000050: 423d 403d 1b62 9f3c 9cb1 11bc b84f 3bbd
00000060: 43e0 aabb 60c1 193b 7e7e 763c 29f3 223c
00000070: d092 373c 9aa6 46bc ff2a aebb 6665 3e3d
00000080: 3553 df3c 25ba f13c c721 a33a 0f8d f8bc
00000090: 2a27 cb3b e2d6 a43c 68b9 413c 9016 053d
000000a0: ca64 bcbc c7f7 0c3d 9ad6 56bc e182 90bb
000000b0: aa73 38bb 3c71 b4bc 256a 853c 05ca f23c
000000c0: ca54 97bc 2173 e53c 4740 f1bc 7ee7 733b
000000d0: aeec 70bc e764 2fbc 49de 2ebd 3a75 e93b
000000e0: 2bfb ab3b f961 10bd 0360 9dbc 684d b0bc
000000f0: cf5a ecbc 9ba5 ae3c 0bce 5e39 e285 b43c
0.0057816585 -0.023123277 -0.004677155 -0.034481023 -0.0038720963 -0.042781647 0.028688863 -0.03599741
-0.0024751094 0.016536163 -0.003924287 -0.010937899 -0.018373437 -0.0023574026 -0.015340421 0.029203353
0.01631474 0.010251138 0.041933693 -0.04025405 0.04693342 0.01945596 -0.008892443 -0.045730323
-0.0052147224 0.0023461208 0.0150448065 0.009945669 0.011204436 -0.012124682 -0.005315184 0.04648342
0.027261356 0.029507706 0.001244598 -0.0303407 0.006199737 0.020121995 0.011823989 0.03249222
-0.022997279 0.034415986 -0.013112688 -0.004410133 -0.0028145113 -0.02202665 0.016285965 0.029637346
-0.018473048 0.028009 -0.029449595 0.0037216838 -0.014704866 -0.010705209 -0.042692456 0.00712457
0.0052484474 -0.035249684 -0.019210821 -0.021521285 -0.028851895 0.021319201 0.00021248327 0.022036497

weight f4 [64]
00000000: b66d 7d3f 05e9 843f 1a65 7e3f 0b73 883f
00000010: 1f0a 803f f965 783f 3729 8b3f da1b 7e3f
00000020: 12da 773f f7c7 6f3f d0e7 7a3f a0c8 803f
00000030: 3556 6f3f 1800 873f 6803 7c3f 9f96 823f
00000040: 42e0 743f d0c4 7c3f c429 753f bc90 893f
00000050: 7760 7b3f 1714 833f 28f2 803f fd19 803f
00000060: 98c8 7c3f edd0 7c3f 9678 793f d074 723f
00000070: 1096 6b3f 011d 7d3f 9ddf 883f e838 743f
00000080: c9f4 733f e6ab 833f 45be 873f 01ce 843f
00000090: 0299 843f a467 7e3f a38b 703f f124 883f
000000a0: 6235 7e3f f188 753f 314c 843f 370f 843f
000000b0: 6823 803f b669 863f 0f41 883f 61c7 823f
000000c0: cd9b 703f ba92 6e3f 51da 7e3f e4e8 853f
000000d0: 5571 713f 4977 833f 3660 7a3f da65 7e3f
000000e0: ed28 863f 7c3e 7d3f 7f1f 753f a076 723f
000000f0: 8c1a 863f 07a4 7f3f 6462 823f 2f28 763f
0.9899553 1.0383612 0.9937302 1.0660108 1.0003089 0.970306 1.0871953 0.9926125
0.96817124 0.936645 0.9800997 1.0061226 0.93490916 1.0546904 0.984427 1.0202216
0.9565469 0.9873781 0.95766854 1.0747294 0.9819407 1.0240506 1.00739 1.0007931
0.9874358 0.98756295 0.97449625 0.9470949 0.9202585 0.9887238 1.0693241 0.9539933
0.9529539 1.0286834 1.0604941 1.0375367 1.0359194 0.99376893 0.9396307 1.0636274
0.99300206 0.9591208 1.0335752 1.0317143 1.0010805 1.050101 1.0644854 1.0217096
0.93987733 0.93192637 0.99551874 1.0461698 0.94313556 1.0270778 0.97803056 0.99374163
1.048124 0.9892347 0.95751184 0.9471226 1.0476851 0.9985966 1.0186276 0.96155065

bias f4 [64]
00000000: 7e52 0ebe 9bae 80bd cc49 833b 0f41 c7bd
00000010: c902 f6bd 9cd5 d7bd df52 8abc 3ad3 e1bd
00000020: 95ff 0bbe fd9c e53c e0b3 d3bd 7755 f0bc
00000030: b547 ddbd 7fd5 adbd c51c a7bd cd45 dcbd
00000040: 3bbe 1cbe e577 e5bd 2b32 25be 5c2d 10be
00000050: e41e ccbd 4ffa 6ebd 211d 3cbe 94b5 65bd
00000060: b527 8dbd 91da ddbd abc4 a2bd cb9d e5bd
00000070: d2e7 07be 9329 4bbd ec32 28be d731 01be
00000080: 3c36 6ebd 8798 d3bd 88b6 d6bc 9812 c9bd
00000090: 4a75 7dbd 4876 57be 8f22 85bd 945e 0ebe
000000a0: d49e e4bd a3c8 2bbe 805f af3c 2dd8 63bd
000000b0: 98e3 2bbe 62b7 b3bd 2479 adbd 9643 1cbe
000000c0: 1ccd e8bd a4b4 10be c39d 72bd 68f9 21be
000000d0: 86c8 44bc 477c 2fbe 33ec 01be 198a 78bd
000000e0: 2c9a 813d 9954 bfbd 0592 2fbe bdbd 72be
000000f0: bce3 a9bd e56b d9bc 6503 d0bd 4b82 10be
-0.13898656 -0.06283303 0.0040066 -0.09729206 -0.1201225 -0.1053879 -0.01688522 -0.110266164
-0.13671716 0.02802896 -0.10337043 -0.029337628 -0.10804693 -0.08487987 -0.08159784 -0.10755501
-0.15306942 -0.11204509 -0.16132419 -0.14079803 -0.099668294 -0.05834418 -0.18370487 -0.05608137
-0.06892339 -0.10832704 -0.07947668 -0.11211737 -0.13272026 -0.049600195 -0.16425675 -0.12616669
-0.05815719 -0.10331827 -0.026210085 -0.098179996 -0.061879434 -0.21041214 -0.06500732 -0.13903266
-0.111631066 -0.16775756 0.021407843 -0.055626083 -0.16786039 -0.08775212 -0.08470371 -0.15260157
-0.113672465 -0.14131409 -0.059232485 -0.15817797 -0.012010699 -0.17137252 -0.12687759 -0.060678575
0.06328234 -0.093423076 -0.17145546 -0.23705192 -0.0829539 -0.026540706 -0.101568975 -0.14112203

running_mean f4 [64]
00000000: 55fa b83d bfc9 04bf fe14 e03e b970 89be
00000010: eccd a0be ac19 293f 9325 db3e b842 d8bf
00000020: 9894 8a3e 4d35 e8be 7e0b e0bf ce79 5b3e
00000030: 49ec a93e dda2 b03e e2be 353f f5c8 29bf
00000040: f9ab 83be f763 97be b113 88bf 9d31 c4be
00000050: 45b2 d53d c071 283f 8890 c7bd 88d8 0fbf
00000060: 4e2d c73e c36c b3bb 35f4 0bbf 74dc 4d3e
00000070: 2f4d b5be 3d5f 2ac0 cea9 a4be 7a04 a4bf
00000080: 6ff4 983e f0ff 8bbe c56f 303f ae33 03bf
00000090: 909c 593e 115c 1dbf 0616 d1bc ef6d 9ebe
000000a0: 1eae 6cbf ca42 68be 5ed9 8b3f 73a9 54c0
000000b0: 23d4 063f cb78 8fbf 827c cebe ac75 a9be
000000c0: 3f24 29c0 ea64 123f c192 36bf a50c 09bf
000000d0: 54cc a93c e7c3 bbbf 8988 9c3e 2631 023f
000000e0: c5df c73f 2c0a 0c3e 7af1 40bf 9476 b9be
000000f0: 1459 4cbf 3239 e53c d309 f53d 8806 eb3f
0.09032122 -0.5187034 0.43766016 -0.26843813 -0.31407106 0.660548 0.42802104 -1.6895361
0.27066493 -0.45353165 -1.7503507 0.21433184 0.33188084 0.34499255 0.7099439 -0.6632226
-0.25717142 -0.29568455 -1.0631009 -0.38319102 0.10434393 0.6579857 -0.09744364 -0.56189775
0.38901752 -0.005475612 -0.54669505 0.20103627 -0.3541045 -2.662063 -0.321608 -1.2813866
0.29873988 -0.27343702 0.68920547 -0.5125073 0.2125113 -0.6146861 -0.025523197 -0.30943248
-0.9245318 -0.22681728 1.092571 -3.3228424 0.52667445 -1.1208738 -0.40329367 -0.3309759
-2.6428373 0.5718523 -0.7131768 -0.5353492 0.020727314 -1.466916 0.30572918 0.50856245
1.5615164 0.13675755 -0.75368464 -0.3622328 -0.7982342 0.027981374 0.119647644 1.8361368

running_var f4 [64]
00000000: bc7e 3a40 b719 8140 ef2d 2640 fd5b 1e40
00000010: 4b65 c53f f07b 1c40 0510 7040 ffed 7540
00000020: feb8 1f40 7174 1740 01ca 6e40 872d 0940
00000030: c6a2 f93f 6676 6b40 7f63 3c40 5393 1b40
00000040: 8ccc 0740 9766 2940 aee1 3540 4aff 2a40
00000050: 27d1 4040 e7d6 4640 77e5 4e40 4ff1 5240
00000060: d47b 8440 2e56 fc3f 5bcf e73f 6122 0840
00000070: c8af 1e40 1f7a 6f40 8dae 2940 3e0c 4f40
00000080: d71a 1840 ac27 4840 feb6 2340 72e1 5f40
00000090: 700d ce3f d064 3840 f1cd 0540 8329 6440
000000a0: 1c9d 0e40 1cec f23f e578 1d40 6f14 a940
000000b0: b673 3b40 8a0f 7e40 7e4e 7940 da8f 3240
000000c0: 874c 3f40 aada 0440 dc60 3e40 bf98 5840
000000d0: 9e73 d73f 4ff2 9540 f000 3a40 ae37 2040
000000e0: 0ceb 0940 f175 1440 a6d5 4140 1682 2740
000000f0: 9ef2 7040 0de2 8540 d2d3 0040 e88c 5040
2.9139853 4.034389 2.5965536 2.4743645 1.5421537 2.4450645 3.7509778 3.8426511
2.495666 2.366482 3.7310793 2.1434038 1.95028 3.6791015 2.9435728 2.430867
2.1218596 2.6468866 2.8418994 2.6718316 3.0127656 3.1068666 3.2327554 3.2959783
4.1401157 1.97138 1.8110155 2.1270983 2.4794788 3.7418287 2.6512787 3.2351222
2.3766382 3.1274214 2.558044 3.498135 1.6097851 2.881153 2.0906947 3.5650337
2.2283392 1.8978305 2.4605038 5.2837443 2.9289374 3.9696984 3.8954158 2.79003
2.9890459 2.0758462 2.9746618 3.384323 1.6832159 4.6858287 2.9063072 2.5033984
2.1549711 2.3196986 3.028665 2.6173148 3.7648082 4.183844 2.0129285 3.2586002

weight f4 [64, 64, 3, 3]
00000000: 2cec a53c 3daf 30bd 109a edbb beda 953c
00000010: 7c1d 103d a848 b0b9 6770 e6bb 908b b03d
00000020: 9a13 ec3a dc9c 103d fe16 44bc ceda 6e3d
00000030: ac58 523b 6cc0 7c3c 6405 b7bb 487a 293d
00000040: 91d1 9b3d f67b 85bd aa5d 4abd 83da 8cbd
00000050: 91ed 083b c14f 4abd 7eaf 283d 01e5 443d
00000060: 5f16 29bd 52c5 0abd af83 e63d c919 413d
00000070: a9f0 263b f349 83bd 8da5 70bb 0a3d 8e3c
00000080: 5458 58bd 2f02 23bc 21f9 0a3c 6391 08bd
00000090: 2dee 94bc 6c28 acbd 1132 33bd 8ecf 90ba
000000a0: dca2 263d 4ab5 3a3d be52 373b bd58 42bd
000000b0: 1d5c 053e 58e7 d13c fe3b 07bd aad1 cbbc
000000c0: 3023 19bd 668f 4bbc 8a24 d7bc d8b4 8a3b
000000d0: a07f f33c 21b1 103c 9bb0 963c 8427 7cbb
000000e0: 9709 fdbd e97b 453d 173e 2f3d 7e32 8fbd
000000f0: d81e b6bd 87eb a13d a260 fb3c 2cf7 c53c
00000100: e29d 22bb caf6 f4ba 0fc2 2fbd 3e3a 1fbd
00000110: 23c0 74bd 3028 853b b8f2 3bbd 173b c33c
00000120: ca77 753c fb7f fb3c 307e 5d3c 0240 20bc
00000130: 467e 18bd 1ab6 a33c a01a 4c3d 9ab6 22bd
00000140: 5c52 15bd eaa0 6bba 5a7e 05bc 14bb f0bc
00000150: edd0 35bd b1de 3c3d 79f1 e53d c27b ebbc
00000160: 3218 78bc 468f 83bd e461 37bc 5376 c6bb
00000170: 83fc 18bd 09e0 64bd e476 71bb 41b2 ddbc
00000180: 2a8e d53c d693 803c 718f 643d de2c 6c3c
00000190: b0a2 f93c 6802 80bb 99c4 30bc ff98 1cbc
000001a0: fe8e f0bb 04e3 4c3c 8083 c8bc 1395 2abc
000001b0: a35d cf3c 6b71 aebc afa2 fcbc 2a37 08bd
000001c0: ba4e 8d3b 1287 3e3c f802 b3bd f3d4 3ebd
000001d0: bfbd 83bd a529 5ebc ddf4 cd3b d597 623d
000001e0: 3a31 e73b 0096 f7bc 1d9d 0c3c a13f b3bb
000001f0: 26bf 383d 245d 653d 0792 7c3c 1ee9 c03c
00000200: 96f8 13bd a2a4 14bd 544a 6dbc 27ee 3c3d
00000210: 0a27 973b 845b 52bc 62fe 8bbd a599 de3c
00000220: 9d8f 7ebd da87 3cbd 9189 3ebd 4045 7fbd
00000230: 1844 773d b332 48bc 3777 58bc 9d39 d13c
00000240: d544 89bc 3642 893c 5d13 6a3d 49ca 87bd
00000250: 38df 0fbd 46b4 993c 79fd 83bd 3edf 023c
00000260: 454a 98bd cd55 5bbd 46e4 a7bd f923 b23b
00000270: 5d7f 91bd 29bd 40bd 1b25 193d 0d4e 203d
00000280: aa0c b0bc 1825 4e3d f376 34bc 2c4e 1a3c
00000290: a872 ae3c b45f 1abc 1b5f 803c 8674 f5bc
000002a0: a399 44bd b685 823c 76b8 863d f81c cf3c
000002b0: b898 6dbd d34d 26bd 48a4 243d ca45 34bd
000002c0: e989 f6bd 1b6c 1f3c 16a3 db3d 68d5 ae3c
000002d0: 4980 0b3c b3fb 383b 93a8 ffbb 832d b1bd
000002e0: f015 303d c2ee db3d cbc7 24bc 49bc c4bc
000002f0: ea96 9bbd d235 32bd 88b9 bebc 7c71 bcbd
00000300: 771d 66bd 828e de3c 8c43 123d 49a8 643d
00000310: 79ce 7ebd a761 7ebd 3601 87bd 5fca 04be
00000320: a902 f53b 96c1 4fbd bfb2 b2bb ac0f 05bd
00000330: 15cc 6bbc 6ccd 63bd 8d0d 79bc bbcc 97bc
00000340: aba1 9e3c ab7b 1b3d ce43 fdbc f833 f4bc
00000350: 2978 133d 2084 123d 94db 2c3c 4765 a6bd
00000360: 6e03 af3c 2652 38bd a983 ecbd 391f 47bd
00000370: 6e65 00bd 1925 cd3c b730 bcbc 9166 073c
00000380: 790d 433b 06b9 cfbc 0470 923c c5b9 14bd
00000390: 5191 28bd 23f4 b03d 2137 00bd 04ce cabc
000003a0: 204b 223d 4c6f 97bd 9aab 89bc acd7 a93a
000003b0: ae97 c2bd 585c 3fbd f78b 043d 674e 44bd
000003c0: fde0 883b 6056 47bd f849 533d baa0 b3bc
000003d0: 8f71 c3bc 7f3a 99bd 9a75 f7bc 2b2a 493d
000003e0: a67c 523c e0a3 d23c 5169 9dba 80c5 aa3d
000003f0: b005 8dbc 1e78 75bb 4296 a23c db31 afbc
0.020254217 -0.04313587 -0.0072510317 0.018292781 0.03518437 -0.0003362347 -0.0070324424 0.086203694
0.0018011213 0.035305843 -0.011968372 0.058314137 0.003209631 0.015426736 -0.0055853594 0.041376382
0.07608331 -0.06517784 -0.04940573 -0.06877615 0.0020893554 -0.049392466 0.041182987 0.048069958
-0.0412811 -0.033879586 0.112555854 0.04714373 0.0025473034 -0.06410589 -0.003671977 0.01736309
-0.05281861 -0.009949251 0.0084822485 -0.033341777 -0.018179977 -0.08406147 -0.04374892 -0.0011048184
0.04068266 0.045583047 0.0027972902 -0.04744791 0.1302342 0.025623009 -0.033016197 -0.024880249
-0.037387073 -0.012424326 -0.02626254 0.004232984 0.029723942 0.008831293 0.018394759 -0.0038475702
-0.12355345 0.048213873 0.042783823 -0.069920525 -0.08892602 0.079062514 0.030685727 0.024165712
-0.0024813344 -0.0018689272 -0.042909678 -0.038873903 -0.05975355 0.0040636286 -0.04588577 0.023831887
0.014982173 0.030700674 0.013518855 -0.009780886 -0.0372298 0.019984294 0.04983008 -0.039724924
-0.036455497 -0.00089885166 -0.0081478 -0.02938608 -0.0443887 0.046110813 0.11227698 -0.028745536
-0.015142487 -0.064238116 -0.011192773 -0.006056586 -0.03735019 -0.05587772 -0.0036844546 -0.027062537
0.026068766 0.015695494 0.05580086 0.014414994 0.030473083 -0.003906537 -0.01078906 -0.0095579615
-0.0073412647 0.012505297 -0.024476767 -0.010411519 0.025313204 -0.021294316 -0.030839292 -0.033255734
0.0043123635 0.011628883 -0.087408006 -0.046589803 -0.064326756 -0.0135597335 0.0062852935 0.05532058
0.007055429 -0.030222893 0.008582381 -0.0054702316 0.04510417 0.05599703 0.015415675 0.023548659
-0.036125742 -0.03628982 -0.014483053 0.046125557 0.004612808 -0.012839202 -0.06835629 0.027172873
-0.06214868 -0.046027996 -0.046517912 -0.0623219 0.060367674 -0.012219119 -0.013212017 0.025540167
-0.016756454 0.016755205 0.057147373 -0.0663038 -0.035124987 0.018762719 -0.064448304 0.007987795
-0.07436041 -0.053548623 -0.081978366 0.005436417 -0.07104371 -0.047055397 0.037388902 0.039136935
-0.021490414 0.050328344 -0.011014688 0.009418052 0.021294907 -0.009422231 0.01567035 -0.02996279
-0.047998082 0.015932899 0.06578152 0.025282368 -0.058006972 -0.040601563 0.040195733 -0.04401187
-0.12038023 0.009730364 0.107244655 0.021341994 0.008514472 0.0028226196 -0.007802078 -0.08651259
0.04298967 0.10738899 -0.0100574 -0.024015563 -0.07597144 -0.04350836 -0.023281828 -0.09201333
-0.056180444 0.027167562 0.03570895 0.05582455 -0.062208626 -0.062104847 -0.06592028 -0.12967823
0.0074771238 -0.050721727 -0.005453437 -0.03248565 -0.014391919 -0.055615827 -0.015200985 -0.01853024
0.019364199 0.037959736 -0.03091612 -0.029809937 0.036003266 0.035770535 0.010550398 -0.08124786
0.02136394 -0.045000218 -0.1154855 -0.04861376 -0.03134673 0.025042104 -0.022972448 0.0082642
0.002976267 -0.02535678 0.017875679 -0.036309976 -0.04115421 0.086403154 -0.031302575 -0.024756439
0.039622426 -0.07394275 -0.016805459 0.0012957952 -0.09501587 -0.046718925 0.032360043 -0.047926333
0.0041772113 -0.048666358 0.051584214 -0.021927226 -0.02385786 -0.0748186 -0.030207444 0.04911248
0.012847101 0.025712907 -0.0012009536 0.083384514 -0.017214626 -0.0037455629 0.01984704 -0.021386078

bias f4 [64]
00000000: cadd 27bc f4ab b73c 7086 063c fd62 2dbd
00000010: 4d46 96bc 19bd 42bc ce32 18bd 81f0 0a3d
00000020: 0a68 04bd 4746 313d 6bfa 813c a6a7 87bc
00000030: d37c cf3c 5bc2 803c 9993 883c 1dc8 66bc
00000040: 0b28 e83b b265 bcbc 6f3d cf3c 263b 943b
00000050: 3fd7 4e3b 02de 003d d160 babc 37e7 013d
00000060: 2663 edbc 9ca0 9c3b c5d9 1e3c d76e 0b3b
00000070: 67c6 b63c 0262 4abc 231a 993c 8a65 c7bc
00000080: 202a 98bc de6b 02bd 38e9 d2bc 932d f03c
00000090: 8eb0 0dbd d31e f9bc ca44 02bd 1baa d83c
000000a0: 8bd6 08bd c943 0abd 1927 c93c 0e1e 98bc
000000b0: 62fc 9737 7eea 0abd e5eb c6bc c90a 89bc
000000c0: b354 79bc 3919 06bc af0b c4bc 120f 163d
000000d0: 4a5f c83c e5c4 043d 3d87 5ebc 73dc d2bb
000000e0: df99 9fbc 8577 3c3d 9674 833c 5046 0abc
000000f0: 8025 bbbb 119d 89bc ea80 11bd 5570 8fba
-0.01024575 0.02242086 0.008210763 -0.04233073 -0.018344069 -0.011885905 -0.037157826 0.03392077
-0.032325782 0.043279912 0.015866479 -0.016559433 0.025328076 0.015717676 0.016671943 -0.014085797
0.0070848516 -0.02299771 0.025297849 0.0045236526 0.0031561402 0.031461723 -0.022751244 0.031714644
-0.028977942 0.0047798883 0.009695475 0.0021275782 0.022311402 -0.012352468 0.01868922 -0.02434041
-0.018574774 -0.03184115 -0.025745973 0.029318606 -0.034592204 -0.030410206 -0.031803884 0.0264483
-0.03340773 -0.03375605 0.024554776 -0.018569019 1.8118128e-05 -0.033915035 -0.024282405 -0.016728776
-0.015217948 -0.0081847245 -0.023931352 0.036635466 0.0244595 0.032414336 -0.013582048 -0.006434971
-0.019482551 0.04601242 0.016046803 -0.008439615 -0.0057112575 -0.016798528 -0.035523333 -0.0010943512
